…
font-style: inherit;">*</span> correct <span class="op" style="color: #5E5E5E;
background-color: null;
font-style: inherit;">/</span> total<span class="sc" style="color: #5E5E5E;
background-color: null;
font-style: inherit;">:.2f}</span><span class="ss" style="color: #20794D;
background-color: null;
font-style: inherit;">%'</span>)</span></code></pre></div>
<div class="cell-output cell-output-stdout">
<pre><code>device: mps
----------------------------------------------------------------
        Layer (type)               Output Shape         Param #
================================================================
            Conv2d-1           [-1, 32, 28, 28]             320
         MaxPool2d-2           [-1, 32, 14, 14]               0
            Conv2d-3           [-1, 64, 14, 14]          18,496
         MaxPool2d-4             [-1, 64, 7, 7]               0
            Conv2d-5             [-1, 32, 7, 7]          18,464
         MaxPool2d-6             [-1, 32, 3, 3]               0
            Linear-7                  [-1, 128]          36,992
            Linear-8                   [-1, 10]           1,290
================================================================
Total params: 75,562
Trainable params: 75,562
Non-trainable params: 0
----------------------------------------------------------------
Input size (MB): 0.00
Forward/backward pass size (MB): 0.37
Params size (MB): 0.29
Estimated Total Size (MB): 0.67
----------------------------------------------------------------
Epoch [1/5], Loss: 0.5107
…
