…
font-style: inherit;">256</span>, <span class="dv" style="color: #AD0000;
background-color: null;
font-style: inherit;">224</span>, <span class="dv" style="color: #AD0000;
background-color: null;
font-style: inherit;">224</span>)))</span></code></pre></div>
<div class="cell-output cell-output-stdout">
<pre><code>torch.Size([1, 192, 64, 64])
==========================================================================================
Layer (type:depth-idx)                   Output Shape              Param #
==========================================================================================
InceptionBlock                           [48, 896, 224]            --
├─ConvReLU: 1-1                          [48, 224, 224]            --
│    └─Conv2d: 2-1                       [48, 224, 224]            12,336
├─ConvReLU: 1-10                         --                        (recursive)
│    └─ReLU: 2-2                         [48, 224, 224]            --
├─ConvReLU: 1-3                          [64, 224, 224]            --
│    └─Conv2d: 2-3                       [64, 224, 224]            16,448
├─ConvReLU: 1-10                         --                        (recursive)
│    └─ReLU: 2-4                         [64, 224, 224]            --
├─ConvReLU: 1-5                          [48, 224, 224]            --
│    └─Conv2d: 2-5                       [48, 224, 224]            27,696
├─ConvReLU: 1-10                         --                        (recursive)
│    └─ReLU: 2-6                         [48, 224, 224]            --
├─ConvReLU: 1-7                          [32, 224, 224]            --
│    └─Conv2d: 2-7                       [32, 224, 224]            8,224
├─ConvReLU: 1-10                         --                        (recursive)
│    └─ReLU: 2-8                         [32, 224, 224]            --
├─ConvReLU: 1-9                          [48, 224, 224]            --
│    └─Conv2d: 2-9                       [48, 224, 224]            38,448
├─ConvReLU: 1-10                         --                        (recursive)
│    └─ReLU: 2-10                        [48, 224, 224]            --
├─MaxPool2d: 1-11                        [256, 224, 224]           --
├─ConvReLU: 1-12                         [48, 224, 224]            --
│    └─Conv2d: 2-11                      [48, 224, 224]            12,336
│    └─ReLU: 2-12                        [48, 224, 224]            --
==========================================================================================
Total params: 115,488
Trainable params: 115,488
Non-trainable params: 0
Total mult-adds (G): 1.27
==========================================================================================
Input size (MB): 51.38
Forward/backward pass size (MB): 115.61
Params size (MB): 0.46
Estimated Total Size (MB): 167.45
…
font-style: inherit;">*</span> correct <span class="op" style="color: #5E5E5E;
background-color: null;
font-style: inherit;">/</span> total<span class="sc" style="color: #5E5E5E;
background-color: null;
font-style: inherit;">:.2f}</span><span class="ss" style="color: #20794D;
background-color: null;
font-style: inherit;">%'</span>)</span></code></pre></div>
<div class="cell-output cell-output-stdout">
<pre><code>device: mps
----------------------------------------------------------------
        Layer (type)               Output Shape         Param #
================================================================
            Conv2d-1           [-1, 32, 28, 28]             320
         MaxPool2d-2           [-1, 32, 14, 14]               0
            Conv2d-3           [-1, 64, 14, 14]          18,496
         MaxPool2d-4             [-1, 64, 7, 7]               0
            Conv2d-5             [-1, 32, 7, 7]          18,464
         MaxPool2d-6             [-1, 32, 3, 3]               0
            Linear-7                  [-1, 128]          36,992
            Linear-8                   [-1, 10]           1,290
================================================================
Total params: 75,562
Trainable params: 75,562
Non-trainable params: 0
----------------------------------------------------------------
Input size (MB): 0.00
Forward/backward pass size (MB): 0.37
Params size (MB): 0.29
Estimated Total Size (MB): 0.67
----------------------------------------------------------------
Epoch [1/5], Loss: 0.5107
…
