…
iew(-1, 128 * 3 * 3)     # flattening the tensor to feed it to FC layer\n        x = self.classifier(x)\n        return x\n\n\nLets look at the model summary.\n\n\nCode\nfrom torchinfo import summary\nmodel = SimpleCNN()\n\ninput_img = torch.rand(1,28,28)\nsummary(model, input_data=input_img)\n\n\n==========================================================================================\nLayer (type:depth-idx)                   Output Shape              Param #\n==========================================================================================\nSimpleCNN                                [1, 10]                   --\n├─Sequential: 1-1                        [128, 3, 3]               --\n│    └─Block: 2-1                        [32, 28, 28]              --\n│    │    └─Sequential: 3-1              [32, 28, 28]              9,568\n│    └─Block: 2-9                        --                        (recursive)\n│    │    └─Sequential: 3-8              --                        (recursive)\n│    └─Block: 2-3                        --                        (recursive)\n│    │    └─Sequential: 3-3              --                        (recursive)\n│    └─Block: 2-9                        --                        (recursive)\n│    │    └─Sequential: 3-8              --                        (recursive)\n│    └─MaxPool2d: 2-5                    [32, 14, 14]              --\n│    └─Block: 2-6                        [64, 14, 14]              --\n│    │    └─Sequential: 3-5              [64, 14, 14]              55,424\n│    └─Block: 2-9                        --                        (recursive)\n│    │    └─Sequential: 3-8              --                        (recursive)\n│    └─Block: 2-8                        --                        (recursive)\n│    │    └─Sequential: 3-7              --                        (recursive)\n│    └─Block: 2-9                        --                        (recursive)\n│    │    └─Sequential: 3-8              --                        (recursive)\n│    └─MaxPool2d: 2-10                   [64, 7, 7]                --\n│    └─Block: 2-11                       [128, 7, 7]               --\n│    │    └─Sequential: 3-9              [128, 7, 7]               221,440\n│    └─MaxPool2d: 2-12                   [128, 3, 3]               --\n├─Sequential: 1-2                        [1, 10]                   --\n│    └─Linear: 2-13                      [1, 2048]                 2,361,344\n│    └─ReLU: 2-14                        [1, 2048]                 --\n│    └─Linear: 2-15                      [1, 10]                   20,490\n==========================================================================================\nTotal params: 2,714,442\nTrainable params: 2,714,442\nNon-trainable params: 0\nTotal mult-adds (M): 259.02\n==========================================================================================\nInput size (MB): 0.00\nForward/backward pass size (MB): 0.72\nParams size (MB): 10.67\nEstimated Total Siz
…
