…
= 0\nwith torch.no_grad():\n    for data, targets in test_loader:\n        data, targets = data.to(device), targets.to(device)\n        outputs = model(data)\n        _, predicted = torch.max(outputs.data, 1)\n        total += targets.size(0)\n        correct += (predicted == targets).sum().item()\n\nprint(f'Test Accuracy: {100 * correct / total:.2f}%')\n\ndevice: mps\n----------------------------------------------------------------\n        Layer (type)               Output Shape         Param #\n================================================================\n            Conv2d-1           [-1, 32, 28, 28]             320\n         MaxPool2d-2           [-1, 32, 14, 14]               0\n            Conv2d-3           [-1, 64, 14, 14]          18,496\n         MaxPool2d-4             [-1, 64, 7, 7]               0\n            Conv2d-5             [-1, 32, 7, 7]          18,464\n         MaxPool2d-6             [-1, 32, 3, 3]               0\n            Linear-7                  [-1, 128]          36,992\n            Linear-8                   [-1, 10]           1,290\n================================================================\nTotal params: 75,562\nTrainable params: 75,562\nNon-trainable params: 0\n----------------------------------------------------------------\nInput size (MB): 0.00\nForward/backward pass size (MB): 0.37\nParams size (MB): 0.29\nEstimated Total Size (MB): 0.67\n----------------------------------------------------------------\nEpoch [1
…
